{"class_name": "Model", "config": {"name": "model_5", "layers": [{"name": "input_3", "class_name": "InputLayer", "config": {"batch_input_shape": [null, null, null, 3], "dtype": "float32", "sparse": false, "name": "input_3"}, "inbound_nodes": []}, {"name": "conv1_pad", "class_name": "ZeroPadding2D", "config": {"name": "conv1_pad", "trainable": false, "padding": [[3, 3], [3, 3]], "data_format": "channels_last"}, "inbound_nodes": [[["input_3", 0, 0, {}]]]}, {"name": "conv1", "class_name": "Conv2D", "config": {"name": "conv1", "trainable": false, "filters": 64, "kernel_size": [7, 7], "strides": [2, 2], "padding": "valid", "data_format": "channels_last", "dilation_rate": [1, 1], "activation": "linear", "use_bias": true, "kernel_initializer": {"class_name": "VarianceScaling", "config": {"scale": 2.0, "mode": "fan_in", "distribution": "normal", "seed": null}}, "bias_initializer": {"class_name": "Zeros", "config": {}}, "kernel_regularizer": null, "bias_regularizer": null, "activity_regularizer": null, "kernel_constraint": null, "bias_constraint": null}, "inbound_nodes": [[["conv1_pad", 0, 0, {}]]]}, {"name": "bn_conv1", "class_name": "BatchNormalization", "config": {"name": "bn_conv1", "trainable": false, "axis": 3, "momentum": 0.99, "epsilon": 0.001, "center": true, "scale": true, "beta_initializer": {"class_name": "Zeros", "config": {}}, "gamma_initializer": {"class_name": "Ones", "config": {}}, "moving_mean_initializer": {"class_name": "Zeros", "config": {}}, "moving_variance_initializer": {"class_name": "Ones", "config": {}}, "beta_regularizer": null, "gamma_regularizer": null, "beta_constraint": null, "gamma_constraint": null}, "inbound_nodes": [[["conv1", 0, 0, {}]]]}, {"name": "activation_99", "class_name": "Activation", "config": {"name": "activation_99", "trainable": false, "activation": "relu"}, "inbound_nodes": [[["bn_conv1", 0, 0, {}]]]}, {"name": "pool1_pad", "class_name": "ZeroPadding2D", "config": {"name": "pool1_pad", "trainable": false, "padding": [[1, 1], [1, 1]], "data_format": "channels_last"}, "inbound_nodes": [[["activation_99", 0, 0, {}]]]}, {"name": "max_pooling2d_3", "class_name": "MaxPooling2D", "config": {"name": "max_pooling2d_3", "trainable": false, "pool_size": [3, 3], "padding": "valid", "strides": [2, 2], "data_format": "channels_last"}, "inbound_nodes": [[["pool1_pad", 0, 0, {}]]]}, {"name": "res2a_branch2a", "class_name": "Conv2D", "config": {"name": "res2a_branch2a", "trainable": false, "filters": 64, "kernel_size": [1, 1], "strides": [1, 1], "padding": "valid", "data_format": "channels_last", "dilation_rate": [1, 1], "activation": "linear", "use_bias": true, "kernel_initializer": {"class_name": "VarianceScaling", "config": {"scale": 2.0, "mode": "fan_in", "distribution": "normal", "seed": null}}, "bias_initializer": {"class_name": "Zeros", "config": {}}, "kernel_regularizer": null, "bias_regularizer": null, "activity_regularizer": null, "kernel_constraint": null, "bias_constraint": null}, "inbound_nodes": [[["max_pooling2d_3", 0, 0, {}]]]}, {"name": "bn2a_branch2a", "class_name": "BatchNormalization", "config": {"name": "bn2a_branch2a", "trainable": false, "axis": 3, "momentum": 0.99, "epsilon": 0.001, "center": true, "scale": true, "beta_initializer": {"class_name": "Zeros", "config": {}}, "gamma_initializer": {"class_name": "Ones", "config": {}}, "moving_mean_initializer": {"class_name": "Zeros", "config": {}}, "moving_variance_initializer": {"class_name": "Ones", "config": {}}, "beta_regularizer": null, "gamma_regularizer": null, "beta_constraint": null, "gamma_constraint": null}, "inbound_nodes": [[["res2a_branch2a", 0, 0, {}]]]}, {"name": "activation_100", "class_name": "Activation", "config": {"name": "activation_100", "trainable": false, "activation": "relu"}, "inbound_nodes": [[["bn2a_branch2a", 0, 0, {}]]]}, {"name": "res2a_branch2b", "class_name": "Conv2D", "config": {"name": "res2a_branch2b", "trainable": false, "filters": 64, "kernel_size": [3, 3], "strides": [1, 1], "padding": "same", "data_format": "channels_last", "dilation_rate": [1, 1], "activation": "linear", "use_bias": true, "kernel_initializer": {"class_name": "VarianceScaling", "config": {"scale": 2.0, "mode": "fan_in", "distribution": "normal", "seed": null}}, "bias_initializer": {"class_name": "Zeros", "config": {}}, "kernel_regularizer": null, "bias_regularizer": null, "activity_regularizer": null, "kernel_constraint": null, "bias_constraint": null}, "inbound_nodes": [[["activation_100", 0, 0, {}]]]}, {"name": "bn2a_branch2b", "class_name": "BatchNormalization", "config": {"name": "bn2a_branch2b", "trainable": false, "axis": 3, "momentum": 0.99, "epsilon": 0.001, "center": true, "scale": true, "beta_initializer": {"class_name": "Zeros", "config": {}}, "gamma_initializer": {"class_name": "Ones", "config": {}}, "moving_mean_initializer": {"class_name": "Zeros", "config": {}}, "moving_variance_initializer": {"class_name": "Ones", "config": {}}, "beta_regularizer": null, "gamma_regularizer": null, "beta_constraint": null, "gamma_constraint": null}, "inbound_nodes": [[["res2a_branch2b", 0, 0, {}]]]}, {"name": "activation_101", "class_name": "Activation", "config": {"name": "activation_101", "trainable": false, "activation": "relu"}, "inbound_nodes": [[["bn2a_branch2b", 0, 0, {}]]]}, {"name": "res2a_branch2c", "class_name": "Conv2D", "config": {"name": "res2a_branch2c", "trainable": false, "filters": 256, "kernel_size": [1, 1], "strides": [1, 1], "padding": "valid", "data_format": "channels_last", "dilation_rate": [1, 1], "activation": "linear", "use_bias": true, "kernel_initializer": {"class_name": "VarianceScaling", "config": {"scale": 2.0, "mode": "fan_in", "distribution": "normal", "seed": null}}, "bias_initializer": {"class_name": "Zeros", "config": {}}, "kernel_regularizer": null, "bias_regularizer": null, "activity_regularizer": null, "kernel_constraint": null, "bias_constraint": null}, "inbound_nodes": [[["activation_101", 0, 0, {}]]]}, {"name": "res2a_branch1", "class_name": "Conv2D", "config": {"name": "res2a_branch1", "trainable": false, "filters": 256, "kernel_size": [1, 1], "strides": [1, 1], "padding": "valid", "data_format": "channels_last", "dilation_rate": [1, 1], "activation": "linear", "use_bias": true, "kernel_initializer": {"class_name": "VarianceScaling", "config": {"scale": 2.0, "mode": "fan_in", "distribution": "normal", "seed": null}}, "bias_initializer": {"class_name": "Zeros", "config": {}}, "kernel_regularizer": null, "bias_regularizer": null, "activity_regularizer": null, "kernel_constraint": null, "bias_constraint": null}, "inbound_nodes": [[["max_pooling2d_3", 0, 0, {}]]]}, {"name": "bn2a_branch2c", "class_name": "BatchNormalization", "config": {"name": "bn2a_branch2c", "trainable": false, "axis": 3, "momentum": 0.99, "epsilon": 0.001, "center": true, "scale": true, "beta_initializer": {"class_name": "Zeros", "config": {}}, "gamma_initializer": {"class_name": "Ones", "config": {}}, "moving_mean_initializer": {"class_name": "Zeros", "config": {}}, "moving_variance_initializer": {"class_name": "Ones", "config": {}}, "beta_regularizer": null, "gamma_regularizer": null, "beta_constraint": null, "gamma_constraint": null}, "inbound_nodes": [[["res2a_branch2c", 0, 0, {}]]]}, {"name": "bn2a_branch1", "class_name": "BatchNormalization", "config": {"name": "bn2a_branch1", "trainable": false, "axis": 3, "momentum": 0.99, "epsilon": 0.001, "center": true, "scale": true, "beta_initializer": {"class_name": "Zeros", "config": {}}, "gamma_initializer": {"class_name": "Ones", "config": {}}, "moving_mean_initializer": {"class_name": "Zeros", "config": {}}, "moving_variance_initializer": {"class_name": "Ones", "config": {}}, "beta_regularizer": null, "gamma_regularizer": null, "beta_constraint": null, "gamma_constraint": null}, "inbound_nodes": [[["res2a_branch1", 0, 0, {}]]]}, {"name": "add_33", "class_name": "Add", "config": {"name": "add_33", "trainable": false}, "inbound_nodes": [[["bn2a_branch2c", 0, 0, {}], ["bn2a_branch1", 0, 0, {}]]]}, {"name": "activation_102", "class_name": "Activation", "config": {"name": "activation_102", "trainable": false, "activation": "relu"}, "inbound_nodes": [[["add_33", 0, 0, {}]]]}, {"name": "res2b_branch2a", "class_name": "Conv2D", "config": {"name": "res2b_branch2a", "trainable": false, "filters": 64, "kernel_size": [1, 1], "strides": [1, 1], "padding": "valid", "data_format": "channels_last", "dilation_rate": [1, 1], "activation": "linear", "use_bias": true, "kernel_initializer": {"class_name": "VarianceScaling", "config": {"scale": 2.0, "mode": "fan_in", "distribution": "normal", "seed": null}}, "bias_initializer": {"class_name": "Zeros", "config": {}}, "kernel_regularizer": null, "bias_regularizer": null, "activity_regularizer": null, "kernel_constraint": null, "bias_constraint": null}, "inbound_nodes": [[["activation_102", 0, 0, {}]]]}, {"name": "bn2b_branch2a", "class_name": "BatchNormalization", "config": {"name": "bn2b_branch2a", "trainable": false, "axis": 3, "momentum": 0.99, "epsilon": 0.001, "center": true, "scale": true, "beta_initializer": {"class_name": "Zeros", "config": {}}, "gamma_initializer": {"class_name": "Ones", "config": {}}, "moving_mean_initializer": {"class_name": "Zeros", "config": {}}, "moving_variance_initializer": {"class_name": "Ones", "config": {}}, "beta_regularizer": null, "gamma_regularizer": null, "beta_constraint": null, "gamma_constraint": null}, "inbound_nodes": [[["res2b_branch2a", 0, 0, {}]]]}, {"name": "activation_103", "class_name": "Activation", "config": {"name": "activation_103", "trainable": false, "activation": "relu"}, "inbound_nodes": [[["bn2b_branch2a", 0, 0, {}]]]}, {"name": "res2b_branch2b", "class_name": "Conv2D", "config": {"name": "res2b_branch2b", "trainable": false, "filters": 64, "kernel_size": [3, 3], "strides": [1, 1], "padding": "same", "data_format": "channels_last", "dilation_rate": [1, 1], "activation": "linear", "use_bias": true, "kernel_initializer": {"class_name": "VarianceScaling", "config": {"scale": 2.0, "mode": "fan_in", "distribution": "normal", "seed": null}}, "bias_initializer": {"class_name": "Zeros", "config": {}}, "kernel_regularizer": null, "bias_regularizer": null, "activity_regularizer": null, "kernel_constraint": null, "bias_constraint": null}, "inbound_nodes": [[["activation_103", 0, 0, {}]]]}, {"name": "bn2b_branch2b", "class_name": "BatchNormalization", "config": {"name": "bn2b_branch2b", "trainable": false, "axis": 3, "momentum": 0.99, "epsilon": 0.001, "center": true, "scale": true, "beta_initializer": {"class_name": "Zeros", "config": {}}, "gamma_initializer": {"class_name": "Ones", "config": {}}, "moving_mean_initializer": {"class_name": "Zeros", "config": {}}, "moving_variance_initializer": {"class_name": "Ones", "config": {}}, "beta_regularizer": null, "gamma_regularizer": null, "beta_constraint": null, "gamma_constraint": null}, "inbound_nodes": [[["res2b_branch2b", 0, 0, {}]]]}, {"name": "activation_104", "class_name": "Activation", "config": {"name": "activation_104", "trainable": false, "activation": "relu"}, "inbound_nodes": [[["bn2b_branch2b", 0, 0, {}]]]}, {"name": "res2b_branch2c", "class_name": "Conv2D", "config": {"name": "res2b_branch2c", "trainable": false, "filters": 256, "kernel_size": [1, 1], "strides": [1, 1], "padding": "valid", "data_format": "channels_last", "dilation_rate": [1, 1], "activation": "linear", "use_bias": true, "kernel_initializer": {"class_name": "VarianceScaling", "config": {"scale": 2.0, "mode": "fan_in", "distribution": "normal", "seed": null}}, "bias_initializer": {"class_name": "Zeros", "config": {}}, "kernel_regularizer": null, "bias_regularizer": null, "activity_regularizer": null, "kernel_constraint": null, "bias_constraint": null}, "inbound_nodes": [[["activation_104", 0, 0, {}]]]}, {"name": "bn2b_branch2c", "class_name": "BatchNormalization", "config": {"name": "bn2b_branch2c", "trainable": false, "axis": 3, "momentum": 0.99, "epsilon": 0.001, "center": true, "scale": true, "beta_initializer": {"class_name": "Zeros", "config": {}}, "gamma_initializer": {"class_name": "Ones", "config": {}}, "moving_mean_initializer": {"class_name": "Zeros", "config": {}}, "moving_variance_initializer": {"class_name": "Ones", "config": {}}, "beta_regularizer": null, "gamma_regularizer": null, "beta_constraint": null, "gamma_constraint": null}, "inbound_nodes": [[["res2b_branch2c", 0, 0, {}]]]}, {"name": "add_34", "class_name": "Add", "config": {"name": "add_34", "trainable": false}, "inbound_nodes": [[["bn2b_branch2c", 0, 0, {}], ["activation_102", 0, 0, {}]]]}, {"name": "activation_105", "class_name": "Activation", "config": {"name": "activation_105", "trainable": false, "activation": "relu"}, "inbound_nodes": [[["add_34", 0, 0, {}]]]}, {"name": "res2c_branch2a", "class_name": "Conv2D", "config": {"name": "res2c_branch2a", "trainable": false, "filters": 64, "kernel_size": [1, 1], "strides": [1, 1], "padding": "valid", "data_format": "channels_last", "dilation_rate": [1, 1], "activation": "linear", "use_bias": true, "kernel_initializer": {"class_name": "VarianceScaling", "config": {"scale": 2.0, "mode": "fan_in", "distribution": "normal", "seed": null}}, "bias_initializer": {"class_name": "Zeros", "config": {}}, "kernel_regularizer": null, "bias_regularizer": null, "activity_regularizer": null, "kernel_constraint": null, "bias_constraint": null}, "inbound_nodes": [[["activation_105", 0, 0, {}]]]}, {"name": "bn2c_branch2a", "class_name": "BatchNormalization", "config": {"name": "bn2c_branch2a", "trainable": false, "axis": 3, "momentum": 0.99, "epsilon": 0.001, "center": true, "scale": true, "beta_initializer": {"class_name": "Zeros", "config": {}}, "gamma_initializer": {"class_name": "Ones", "config": {}}, "moving_mean_initializer": {"class_name": "Zeros", "config": {}}, "moving_variance_initializer": {"class_name": "Ones", "config": {}}, "beta_regularizer": null, "gamma_regularizer": null, "beta_constraint": null, "gamma_constraint": null}, "inbound_nodes": [[["res2c_branch2a", 0, 0, {}]]]}, {"name": "activation_106", "class_name": "Activation", "config": {"name": "activation_106", "trainable": false, "activation": "relu"}, "inbound_nodes": [[["bn2c_branch2a", 0, 0, {}]]]}, {"name": "res2c_branch2b", "class_name": "Conv2D", "config": {"name": "res2c_branch2b", "trainable": false, "filters": 64, "kernel_size": [3, 3], "strides": [1, 1], "padding": "same", "data_format": "channels_last", "dilation_rate": [1, 1], "activation": "linear", "use_bias": true, "kernel_initializer": {"class_name": "VarianceScaling", "config": {"scale": 2.0, "mode": "fan_in", "distribution": "normal", "seed": null}}, "bias_initializer": {"class_name": "Zeros", "config": {}}, "kernel_regularizer": null, "bias_regularizer": null, "activity_regularizer": null, "kernel_constraint": null, "bias_constraint": null}, "inbound_nodes": [[["activation_106", 0, 0, {}]]]}, {"name": "bn2c_branch2b", "class_name": "BatchNormalization", "config": {"name": "bn2c_branch2b", "trainable": false, "axis": 3, "momentum": 0.99, "epsilon": 0.001, "center": true, "scale": true, "beta_initializer": {"class_name": "Zeros", "config": {}}, "gamma_initializer": {"class_name": "Ones", "config": {}}, "moving_mean_initializer": {"class_name": "Zeros", "config": {}}, "moving_variance_initializer": {"class_name": "Ones", "config": {}}, "beta_regularizer": null, "gamma_regularizer": null, "beta_constraint": null, "gamma_constraint": null}, "inbound_nodes": [[["res2c_branch2b", 0, 0, {}]]]}, {"name": "activation_107", "class_name": "Activation", "config": {"name": "activation_107", "trainable": false, "activation": "relu"}, "inbound_nodes": [[["bn2c_branch2b", 0, 0, {}]]]}, {"name": "res2c_branch2c", "class_name": "Conv2D", "config": {"name": "res2c_branch2c", "trainable": false, "filters": 256, "kernel_size": [1, 1], "strides": [1, 1], "padding": "valid", "data_format": "channels_last", "dilation_rate": [1, 1], "activation": "linear", "use_bias": true, "kernel_initializer": {"class_name": "VarianceScaling", "config": {"scale": 2.0, "mode": "fan_in", "distribution": "normal", "seed": null}}, "bias_initializer": {"class_name": "Zeros", "config": {}}, "kernel_regularizer": null, "bias_regularizer": null, "activity_regularizer": null, "kernel_constraint": null, "bias_constraint": null}, "inbound_nodes": [[["activation_107", 0, 0, {}]]]}, {"name": "bn2c_branch2c", "class_name": "BatchNormalization", "config": {"name": "bn2c_branch2c", "trainable": false, "axis": 3, "momentum": 0.99, "epsilon": 0.001, "center": true, "scale": true, "beta_initializer": {"class_name": "Zeros", "config": {}}, "gamma_initializer": {"class_name": "Ones", "config": {}}, "moving_mean_initializer": {"class_name": "Zeros", "config": {}}, "moving_variance_initializer": {"class_name": "Ones", "config": {}}, "beta_regularizer": null, "gamma_regularizer": null, "beta_constraint": null, "gamma_constraint": null}, "inbound_nodes": [[["res2c_branch2c", 0, 0, {}]]]}, {"name": "add_35", "class_name": "Add", "config": {"name": "add_35", "trainable": false}, "inbound_nodes": [[["bn2c_branch2c", 0, 0, {}], ["activation_105", 0, 0, {}]]]}, {"name": "activation_108", "class_name": "Activation", "config": {"name": "activation_108", "trainable": false, "activation": "relu"}, "inbound_nodes": [[["add_35", 0, 0, {}]]]}, {"name": "res3a_branch2a", "class_name": "Conv2D", "config": {"name": "res3a_branch2a", "trainable": false, "filters": 128, "kernel_size": [1, 1], "strides": [2, 2], "padding": "valid", "data_format": "channels_last", "dilation_rate": [1, 1], "activation": "linear", "use_bias": true, "kernel_initializer": {"class_name": "VarianceScaling", "config": {"scale": 2.0, "mode": "fan_in", "distribution": "normal", "seed": null}}, "bias_initializer": {"class_name": "Zeros", "config": {}}, "kernel_regularizer": null, "bias_regularizer": null, "activity_regularizer": null, "kernel_constraint": null, "bias_constraint": null}, "inbound_nodes": [[["activation_108", 0, 0, {}]]]}, {"name": "bn3a_branch2a", "class_name": "BatchNormalization", "config": {"name": "bn3a_branch2a", "trainable": false, "axis": 3, "momentum": 0.99, "epsilon": 0.001, "center": true, "scale": true, "beta_initializer": {"class_name": "Zeros", "config": {}}, "gamma_initializer": {"class_name": "Ones", "config": {}}, "moving_mean_initializer": {"class_name": "Zeros", "config": {}}, "moving_variance_initializer": {"class_name": "Ones", "config": {}}, "beta_regularizer": null, "gamma_regularizer": null, "beta_constraint": null, "gamma_constraint": null}, "inbound_nodes": [[["res3a_branch2a", 0, 0, {}]]]}, {"name": "activation_109", "class_name": "Activation", "config": {"name": "activation_109", "trainable": false, "activation": "relu"}, "inbound_nodes": [[["bn3a_branch2a", 0, 0, {}]]]}, {"name": "res3a_branch2b", "class_name": "Conv2D", "config": {"name": "res3a_branch2b", "trainable": false, "filters": 128, "kernel_size": [3, 3], "strides": [1, 1], "padding": "same", "data_format": "channels_last", "dilation_rate": [1, 1], "activation": "linear", "use_bias": true, "kernel_initializer": {"class_name": "VarianceScaling", "config": {"scale": 2.0, "mode": "fan_in", "distribution": "normal", "seed": null}}, "bias_initializer": {"class_name": "Zeros", "config": {}}, "kernel_regularizer": null, "bias_regularizer": null, "activity_regularizer": null, "kernel_constraint": null, "bias_constraint": null}, "inbound_nodes": [[["activation_109", 0, 0, {}]]]}, {"name": "bn3a_branch2b", "class_name": "BatchNormalization", "config": {"name": "bn3a_branch2b", "trainable": false, "axis": 3, "momentum": 0.99, "epsilon": 0.001, "center": true, "scale": true, "beta_initializer": {"class_name": "Zeros", "config": {}}, "gamma_initializer": {"class_name": "Ones", "config": {}}, "moving_mean_initializer": {"class_name": "Zeros", "config": {}}, "moving_variance_initializer": {"class_name": "Ones", "config": {}}, "beta_regularizer": null, "gamma_regularizer": null, "beta_constraint": null, "gamma_constraint": null}, "inbound_nodes": [[["res3a_branch2b", 0, 0, {}]]]}, {"name": "activation_110", "class_name": "Activation", "config": {"name": "activation_110", "trainable": false, "activation": "relu"}, "inbound_nodes": [[["bn3a_branch2b", 0, 0, {}]]]}, {"name": "res3a_branch2c", "class_name": "Conv2D", "config": {"name": "res3a_branch2c", "trainable": false, "filters": 512, "kernel_size": [1, 1], "strides": [1, 1], "padding": "valid", "data_format": "channels_last", "dilation_rate": [1, 1], "activation": "linear", "use_bias": true, "kernel_initializer": {"class_name": "VarianceScaling", "config": {"scale": 2.0, "mode": "fan_in", "distribution": "normal", "seed": null}}, "bias_initializer": {"class_name": "Zeros", "config": {}}, "kernel_regularizer": null, "bias_regularizer": null, "activity_regularizer": null, "kernel_constraint": null, "bias_constraint": null}, "inbound_nodes": [[["activation_110", 0, 0, {}]]]}, {"name": "res3a_branch1", "class_name": "Conv2D", "config": {"name": "res3a_branch1", "trainable": false, "filters": 512, "kernel_size": [1, 1], "strides": [2, 2], "padding": "valid", "data_format": "channels_last", "dilation_rate": [1, 1], "activation": "linear", "use_bias": true, "kernel_initializer": {"class_name": "VarianceScaling", "config": {"scale": 2.0, "mode": "fan_in", "distribution": "normal", "seed": null}}, "bias_initializer": {"class_name": "Zeros", "config": {}}, "kernel_regularizer": null, "bias_regularizer": null, "activity_regularizer": null, "kernel_constraint": null, "bias_constraint": null}, "inbound_nodes": [[["activation_108", 0, 0, {}]]]}, {"name": "bn3a_branch2c", "class_name": "BatchNormalization", "config": {"name": "bn3a_branch2c", "trainable": false, "axis": 3, "momentum": 0.99, "epsilon": 0.001, "center": true, "scale": true, "beta_initializer": {"class_name": "Zeros", "config": {}}, "gamma_initializer": {"class_name": "Ones", "config": {}}, "moving_mean_initializer": {"class_name": "Zeros", "config": {}}, "moving_variance_initializer": {"class_name": "Ones", "config": {}}, "beta_regularizer": null, "gamma_regularizer": null, "beta_constraint": null, "gamma_constraint": null}, "inbound_nodes": [[["res3a_branch2c", 0, 0, {}]]]}, {"name": "bn3a_branch1", "class_name": "BatchNormalization", "config": {"name": "bn3a_branch1", "trainable": false, "axis": 3, "momentum": 0.99, "epsilon": 0.001, "center": true, "scale": true, "beta_initializer": {"class_name": "Zeros", "config": {}}, "gamma_initializer": {"class_name": "Ones", "config": {}}, "moving_mean_initializer": {"class_name": "Zeros", "config": {}}, "moving_variance_initializer": {"class_name": "Ones", "config": {}}, "beta_regularizer": null, "gamma_regularizer": null, "beta_constraint": null, "gamma_constraint": null}, "inbound_nodes": [[["res3a_branch1", 0, 0, {}]]]}, {"name": "add_36", "class_name": "Add", "config": {"name": "add_36", "trainable": false}, "inbound_nodes": [[["bn3a_branch2c", 0, 0, {}], ["bn3a_branch1", 0, 0, {}]]]}, {"name": "activation_111", "class_name": "Activation", "config": {"name": "activation_111", "trainable": false, "activation": "relu"}, "inbound_nodes": [[["add_36", 0, 0, {}]]]}, {"name": "res3b_branch2a", "class_name": "Conv2D", "config": {"name": "res3b_branch2a", "trainable": false, "filters": 128, "kernel_size": [1, 1], "strides": [1, 1], "padding": "valid", "data_format": "channels_last", "dilation_rate": [1, 1], "activation": "linear", "use_bias": true, "kernel_initializer": {"class_name": "VarianceScaling", "config": {"scale": 2.0, "mode": "fan_in", "distribution": "normal", "seed": null}}, "bias_initializer": {"class_name": "Zeros", "config": {}}, "kernel_regularizer": null, "bias_regularizer": null, "activity_regularizer": null, "kernel_constraint": null, "bias_constraint": null}, "inbound_nodes": [[["activation_111", 0, 0, {}]]]}, {"name": "bn3b_branch2a", "class_name": "BatchNormalization", "config": {"name": "bn3b_branch2a", "trainable": false, "axis": 3, "momentum": 0.99, "epsilon": 0.001, "center": true, "scale": true, "beta_initializer": {"class_name": "Zeros", "config": {}}, "gamma_initializer": {"class_name": "Ones", "config": {}}, "moving_mean_initializer": {"class_name": "Zeros", "config": {}}, "moving_variance_initializer": {"class_name": "Ones", "config": {}}, "beta_regularizer": null, "gamma_regularizer": null, "beta_constraint": null, "gamma_constraint": null}, "inbound_nodes": [[["res3b_branch2a", 0, 0, {}]]]}, {"name": "activation_112", "class_name": "Activation", "config": {"name": "activation_112", "trainable": false, "activation": "relu"}, "inbound_nodes": [[["bn3b_branch2a", 0, 0, {}]]]}, {"name": "res3b_branch2b", "class_name": "Conv2D", "config": {"name": "res3b_branch2b", "trainable": false, "filters": 128, "kernel_size": [3, 3], "strides": [1, 1], "padding": "same", "data_format": "channels_last", "dilation_rate": [1, 1], "activation": "linear", "use_bias": true, "kernel_initializer": {"class_name": "VarianceScaling", "config": {"scale": 2.0, "mode": "fan_in", "distribution": "normal", "seed": null}}, "bias_initializer": {"class_name": "Zeros", "config": {}}, "kernel_regularizer": null, "bias_regularizer": null, "activity_regularizer": null, "kernel_constraint": null, "bias_constraint": null}, "inbound_nodes": [[["activation_112", 0, 0, {}]]]}, {"name": "bn3b_branch2b", "class_name": "BatchNormalization", "config": {"name": "bn3b_branch2b", "trainable": false, "axis": 3, "momentum": 0.99, "epsilon": 0.001, "center": true, "scale": true, "beta_initializer": {"class_name": "Zeros", "config": {}}, "gamma_initializer": {"class_name": "Ones", "config": {}}, "moving_mean_initializer": {"class_name": "Zeros", "config": {}}, "moving_variance_initializer": {"class_name": "Ones", "config": {}}, "beta_regularizer": null, "gamma_regularizer": null, "beta_constraint": null, "gamma_constraint": null}, "inbound_nodes": [[["res3b_branch2b", 0, 0, {}]]]}, {"name": "activation_113", "class_name": "Activation", "config": {"name": "activation_113", "trainable": false, "activation": "relu"}, "inbound_nodes": [[["bn3b_branch2b", 0, 0, {}]]]}, {"name": "res3b_branch2c", "class_name": "Conv2D", "config": {"name": "res3b_branch2c", "trainable": false, "filters": 512, "kernel_size": [1, 1], "strides": [1, 1], "padding": "valid", "data_format": "channels_last", "dilation_rate": [1, 1], "activation": "linear", "use_bias": true, "kernel_initializer": {"class_name": "VarianceScaling", "config": {"scale": 2.0, "mode": "fan_in", "distribution": "normal", "seed": null}}, "bias_initializer": {"class_name": "Zeros", "config": {}}, "kernel_regularizer": null, "bias_regularizer": null, "activity_regularizer": null, "kernel_constraint": null, "bias_constraint": null}, "inbound_nodes": [[["activation_113", 0, 0, {}]]]}, {"name": "bn3b_branch2c", "class_name": "BatchNormalization", "config": {"name": "bn3b_branch2c", "trainable": false, "axis": 3, "momentum": 0.99, "epsilon": 0.001, "center": true, "scale": true, "beta_initializer": {"class_name": "Zeros", "config": {}}, "gamma_initializer": {"class_name": "Ones", "config": {}}, "moving_mean_initializer": {"class_name": "Zeros", "config": {}}, "moving_variance_initializer": {"class_name": "Ones", "config": {}}, "beta_regularizer": null, "gamma_regularizer": null, "beta_constraint": null, "gamma_constraint": null}, "inbound_nodes": [[["res3b_branch2c", 0, 0, {}]]]}, {"name": "add_37", "class_name": "Add", "config": {"name": "add_37", "trainable": false}, "inbound_nodes": [[["bn3b_branch2c", 0, 0, {}], ["activation_111", 0, 0, {}]]]}, {"name": "activation_114", "class_name": "Activation", "config": {"name": "activation_114", "trainable": false, "activation": "relu"}, "inbound_nodes": [[["add_37", 0, 0, {}]]]}, {"name": "res3c_branch2a", "class_name": "Conv2D", "config": {"name": "res3c_branch2a", "trainable": false, "filters": 128, "kernel_size": [1, 1], "strides": [1, 1], "padding": "valid", "data_format": "channels_last", "dilation_rate": [1, 1], "activation": "linear", "use_bias": true, "kernel_initializer": {"class_name": "VarianceScaling", "config": {"scale": 2.0, "mode": "fan_in", "distribution": "normal", "seed": null}}, "bias_initializer": {"class_name": "Zeros", "config": {}}, "kernel_regularizer": null, "bias_regularizer": null, "activity_regularizer": null, "kernel_constraint": null, "bias_constraint": null}, "inbound_nodes": [[["activation_114", 0, 0, {}]]]}, {"name": "bn3c_branch2a", "class_name": "BatchNormalization", "config": {"name": "bn3c_branch2a", "trainable": false, "axis": 3, "momentum": 0.99, "epsilon": 0.001, "center": true, "scale": true, "beta_initializer": {"class_name": "Zeros", "config": {}}, "gamma_initializer": {"class_name": "Ones", "config": {}}, "moving_mean_initializer": {"class_name": "Zeros", "config": {}}, "moving_variance_initializer": {"class_name": "Ones", "config": {}}, "beta_regularizer": null, "gamma_regularizer": null, "beta_constraint": null, "gamma_constraint": null}, "inbound_nodes": [[["res3c_branch2a", 0, 0, {}]]]}, {"name": "activation_115", "class_name": "Activation", "config": {"name": "activation_115", "trainable": false, "activation": "relu"}, "inbound_nodes": [[["bn3c_branch2a", 0, 0, {}]]]}, {"name": "res3c_branch2b", "class_name": "Conv2D", "config": {"name": "res3c_branch2b", "trainable": false, "filters": 128, "kernel_size": [3, 3], "strides": [1, 1], "padding": "same", "data_format": "channels_last", "dilation_rate": [1, 1], "activation": "linear", "use_bias": true, "kernel_initializer": {"class_name": "VarianceScaling", "config": {"scale": 2.0, "mode": "fan_in", "distribution": "normal", "seed": null}}, "bias_initializer": {"class_name": "Zeros", "config": {}}, "kernel_regularizer": null, "bias_regularizer": null, "activity_regularizer": null, "kernel_constraint": null, "bias_constraint": null}, "inbound_nodes": [[["activation_115", 0, 0, {}]]]}, {"name": "bn3c_branch2b", "class_name": "BatchNormalization", "config": {"name": "bn3c_branch2b", "trainable": false, "axis": 3, "momentum": 0.99, "epsilon": 0.001, "center": true, "scale": true, "beta_initializer": {"class_name": "Zeros", "config": {}}, "gamma_initializer": {"class_name": "Ones", "config": {}}, "moving_mean_initializer": {"class_name": "Zeros", "config": {}}, "moving_variance_initializer": {"class_name": "Ones", "config": {}}, "beta_regularizer": null, "gamma_regularizer": null, "beta_constraint": null, "gamma_constraint": null}, "inbound_nodes": [[["res3c_branch2b", 0, 0, {}]]]}, {"name": "activation_116", "class_name": "Activation", "config": {"name": "activation_116", "trainable": false, "activation": "relu"}, "inbound_nodes": [[["bn3c_branch2b", 0, 0, {}]]]}, {"name": "res3c_branch2c", "class_name": "Conv2D", "config": {"name": "res3c_branch2c", "trainable": false, "filters": 512, "kernel_size": [1, 1], "strides": [1, 1], "padding": "valid", "data_format": "channels_last", "dilation_rate": [1, 1], "activation": "linear", "use_bias": true, "kernel_initializer": {"class_name": "VarianceScaling", "config": {"scale": 2.0, "mode": "fan_in", "distribution": "normal", "seed": null}}, "bias_initializer": {"class_name": "Zeros", "config": {}}, "kernel_regularizer": null, "bias_regularizer": null, "activity_regularizer": null, "kernel_constraint": null, "bias_constraint": null}, "inbound_nodes": [[["activation_116", 0, 0, {}]]]}, {"name": "bn3c_branch2c", "class_name": "BatchNormalization", "config": {"name": "bn3c_branch2c", "trainable": false, "axis": 3, "momentum": 0.99, "epsilon": 0.001, "center": true, "scale": true, "beta_initializer": {"class_name": "Zeros", "config": {}}, "gamma_initializer": {"class_name": "Ones", "config": {}}, "moving_mean_initializer": {"class_name": "Zeros", "config": {}}, "moving_variance_initializer": {"class_name": "Ones", "config": {}}, "beta_regularizer": null, "gamma_regularizer": null, "beta_constraint": null, "gamma_constraint": null}, "inbound_nodes": [[["res3c_branch2c", 0, 0, {}]]]}, {"name": "add_38", "class_name": "Add", "config": {"name": "add_38", "trainable": false}, "inbound_nodes": [[["bn3c_branch2c", 0, 0, {}], ["activation_114", 0, 0, {}]]]}, {"name": "activation_117", "class_name": "Activation", "config": {"name": "activation_117", "trainable": false, "activation": "relu"}, "inbound_nodes": [[["add_38", 0, 0, {}]]]}, {"name": "res3d_branch2a", "class_name": "Conv2D", "config": {"name": "res3d_branch2a", "trainable": false, "filters": 128, "kernel_size": [1, 1], "strides": [1, 1], "padding": "valid", "data_format": "channels_last", "dilation_rate": [1, 1], "activation": "linear", "use_bias": true, "kernel_initializer": {"class_name": "VarianceScaling", "config": {"scale": 2.0, "mode": "fan_in", "distribution": "normal", "seed": null}}, "bias_initializer": {"class_name": "Zeros", "config": {}}, "kernel_regularizer": null, "bias_regularizer": null, "activity_regularizer": null, "kernel_constraint": null, "bias_constraint": null}, "inbound_nodes": [[["activation_117", 0, 0, {}]]]}, {"name": "bn3d_branch2a", "class_name": "BatchNormalization", "config": {"name": "bn3d_branch2a", "trainable": false, "axis": 3, "momentum": 0.99, "epsilon": 0.001, "center": true, "scale": true, "beta_initializer": {"class_name": "Zeros", "config": {}}, "gamma_initializer": {"class_name": "Ones", "config": {}}, "moving_mean_initializer": {"class_name": "Zeros", "config": {}}, "moving_variance_initializer": {"class_name": "Ones", "config": {}}, "beta_regularizer": null, "gamma_regularizer": null, "beta_constraint": null, "gamma_constraint": null}, "inbound_nodes": [[["res3d_branch2a", 0, 0, {}]]]}, {"name": "activation_118", "class_name": "Activation", "config": {"name": "activation_118", "trainable": false, "activation": "relu"}, "inbound_nodes": [[["bn3d_branch2a", 0, 0, {}]]]}, {"name": "res3d_branch2b", "class_name": "Conv2D", "config": {"name": "res3d_branch2b", "trainable": false, "filters": 128, "kernel_size": [3, 3], "strides": [1, 1], "padding": "same", "data_format": "channels_last", "dilation_rate": [1, 1], "activation": "linear", "use_bias": true, "kernel_initializer": {"class_name": "VarianceScaling", "config": {"scale": 2.0, "mode": "fan_in", "distribution": "normal", "seed": null}}, "bias_initializer": {"class_name": "Zeros", "config": {}}, "kernel_regularizer": null, "bias_regularizer": null, "activity_regularizer": null, "kernel_constraint": null, "bias_constraint": null}, "inbound_nodes": [[["activation_118", 0, 0, {}]]]}, {"name": "bn3d_branch2b", "class_name": "BatchNormalization", "config": {"name": "bn3d_branch2b", "trainable": false, "axis": 3, "momentum": 0.99, "epsilon": 0.001, "center": true, "scale": true, "beta_initializer": {"class_name": "Zeros", "config": {}}, "gamma_initializer": {"class_name": "Ones", "config": {}}, "moving_mean_initializer": {"class_name": "Zeros", "config": {}}, "moving_variance_initializer": {"class_name": "Ones", "config": {}}, "beta_regularizer": null, "gamma_regularizer": null, "beta_constraint": null, "gamma_constraint": null}, "inbound_nodes": [[["res3d_branch2b", 0, 0, {}]]]}, {"name": "activation_119", "class_name": "Activation", "config": {"name": "activation_119", "trainable": false, "activation": "relu"}, "inbound_nodes": [[["bn3d_branch2b", 0, 0, {}]]]}, {"name": "res3d_branch2c", "class_name": "Conv2D", "config": {"name": "res3d_branch2c", "trainable": false, "filters": 512, "kernel_size": [1, 1], "strides": [1, 1], "padding": "valid", "data_format": "channels_last", "dilation_rate": [1, 1], "activation": "linear", "use_bias": true, "kernel_initializer": {"class_name": "VarianceScaling", "config": {"scale": 2.0, "mode": "fan_in", "distribution": "normal", "seed": null}}, "bias_initializer": {"class_name": "Zeros", "config": {}}, "kernel_regularizer": null, "bias_regularizer": null, "activity_regularizer": null, "kernel_constraint": null, "bias_constraint": null}, "inbound_nodes": [[["activation_119", 0, 0, {}]]]}, {"name": "bn3d_branch2c", "class_name": "BatchNormalization", "config": {"name": "bn3d_branch2c", "trainable": false, "axis": 3, "momentum": 0.99, "epsilon": 0.001, "center": true, "scale": true, "beta_initializer": {"class_name": "Zeros", "config": {}}, "gamma_initializer": {"class_name": "Ones", "config": {}}, "moving_mean_initializer": {"class_name": "Zeros", "config": {}}, "moving_variance_initializer": {"class_name": "Ones", "config": {}}, "beta_regularizer": null, "gamma_regularizer": null, "beta_constraint": null, "gamma_constraint": null}, "inbound_nodes": [[["res3d_branch2c", 0, 0, {}]]]}, {"name": "add_39", "class_name": "Add", "config": {"name": "add_39", "trainable": false}, "inbound_nodes": [[["bn3d_branch2c", 0, 0, {}], ["activation_117", 0, 0, {}]]]}, {"name": "activation_120", "class_name": "Activation", "config": {"name": "activation_120", "trainable": false, "activation": "relu"}, "inbound_nodes": [[["add_39", 0, 0, {}]]]}, {"name": "res4a_branch2a", "class_name": "Conv2D", "config": {"name": "res4a_branch2a", "trainable": false, "filters": 256, "kernel_size": [1, 1], "strides": [2, 2], "padding": "valid", "data_format": "channels_last", "dilation_rate": [1, 1], "activation": "linear", "use_bias": true, "kernel_initializer": {"class_name": "VarianceScaling", "config": {"scale": 2.0, "mode": "fan_in", "distribution": "normal", "seed": null}}, "bias_initializer": {"class_name": "Zeros", "config": {}}, "kernel_regularizer": null, "bias_regularizer": null, "activity_regularizer": null, "kernel_constraint": null, "bias_constraint": null}, "inbound_nodes": [[["activation_120", 0, 0, {}]]]}, {"name": "bn4a_branch2a", "class_name": "BatchNormalization", "config": {"name": "bn4a_branch2a", "trainable": false, "axis": 3, "momentum": 0.99, "epsilon": 0.001, "center": true, "scale": true, "beta_initializer": {"class_name": "Zeros", "config": {}}, "gamma_initializer": {"class_name": "Ones", "config": {}}, "moving_mean_initializer": {"class_name": "Zeros", "config": {}}, "moving_variance_initializer": {"class_name": "Ones", "config": {}}, "beta_regularizer": null, "gamma_regularizer": null, "beta_constraint": null, "gamma_constraint": null}, "inbound_nodes": [[["res4a_branch2a", 0, 0, {}]]]}, {"name": "activation_121", "class_name": "Activation", "config": {"name": "activation_121", "trainable": false, "activation": "relu"}, "inbound_nodes": [[["bn4a_branch2a", 0, 0, {}]]]}, {"name": "res4a_branch2b", "class_name": "Conv2D", "config": {"name": "res4a_branch2b", "trainable": false, "filters": 256, "kernel_size": [3, 3], "strides": [1, 1], "padding": "same", "data_format": "channels_last", "dilation_rate": [1, 1], "activation": "linear", "use_bias": true, "kernel_initializer": {"class_name": "VarianceScaling", "config": {"scale": 2.0, "mode": "fan_in", "distribution": "normal", "seed": null}}, "bias_initializer": {"class_name": "Zeros", "config": {}}, "kernel_regularizer": null, "bias_regularizer": null, "activity_regularizer": null, "kernel_constraint": null, "bias_constraint": null}, "inbound_nodes": [[["activation_121", 0, 0, {}]]]}, {"name": "bn4a_branch2b", "class_name": "BatchNormalization", "config": {"name": "bn4a_branch2b", "trainable": false, "axis": 3, "momentum": 0.99, "epsilon": 0.001, "center": true, "scale": true, "beta_initializer": {"class_name": "Zeros", "config": {}}, "gamma_initializer": {"class_name": "Ones", "config": {}}, "moving_mean_initializer": {"class_name": "Zeros", "config": {}}, "moving_variance_initializer": {"class_name": "Ones", "config": {}}, "beta_regularizer": null, "gamma_regularizer": null, "beta_constraint": null, "gamma_constraint": null}, "inbound_nodes": [[["res4a_branch2b", 0, 0, {}]]]}, {"name": "activation_122", "class_name": "Activation", "config": {"name": "activation_122", "trainable": false, "activation": "relu"}, "inbound_nodes": [[["bn4a_branch2b", 0, 0, {}]]]}, {"name": "res4a_branch2c", "class_name": "Conv2D", "config": {"name": "res4a_branch2c", "trainable": false, "filters": 1024, "kernel_size": [1, 1], "strides": [1, 1], "padding": "valid", "data_format": "channels_last", "dilation_rate": [1, 1], "activation": "linear", "use_bias": true, "kernel_initializer": {"class_name": "VarianceScaling", "config": {"scale": 2.0, "mode": "fan_in", "distribution": "normal", "seed": null}}, "bias_initializer": {"class_name": "Zeros", "config": {}}, "kernel_regularizer": null, "bias_regularizer": null, "activity_regularizer": null, "kernel_constraint": null, "bias_constraint": null}, "inbound_nodes": [[["activation_122", 0, 0, {}]]]}, {"name": "res4a_branch1", "class_name": "Conv2D", "config": {"name": "res4a_branch1", "trainable": false, "filters": 1024, "kernel_size": [1, 1], "strides": [2, 2], "padding": "valid", "data_format": "channels_last", "dilation_rate": [1, 1], "activation": "linear", "use_bias": true, "kernel_initializer": {"class_name": "VarianceScaling", "config": {"scale": 2.0, "mode": "fan_in", "distribution": "normal", "seed": null}}, "bias_initializer": {"class_name": "Zeros", "config": {}}, "kernel_regularizer": null, "bias_regularizer": null, "activity_regularizer": null, "kernel_constraint": null, "bias_constraint": null}, "inbound_nodes": [[["activation_120", 0, 0, {}]]]}, {"name": "bn4a_branch2c", "class_name": "BatchNormalization", "config": {"name": "bn4a_branch2c", "trainable": false, "axis": 3, "momentum": 0.99, "epsilon": 0.001, "center": true, "scale": true, "beta_initializer": {"class_name": "Zeros", "config": {}}, "gamma_initializer": {"class_name": "Ones", "config": {}}, "moving_mean_initializer": {"class_name": "Zeros", "config": {}}, "moving_variance_initializer": {"class_name": "Ones", "config": {}}, "beta_regularizer": null, "gamma_regularizer": null, "beta_constraint": null, "gamma_constraint": null}, "inbound_nodes": [[["res4a_branch2c", 0, 0, {}]]]}, {"name": "bn4a_branch1", "class_name": "BatchNormalization", "config": {"name": "bn4a_branch1", "trainable": false, "axis": 3, "momentum": 0.99, "epsilon": 0.001, "center": true, "scale": true, "beta_initializer": {"class_name": "Zeros", "config": {}}, "gamma_initializer": {"class_name": "Ones", "config": {}}, "moving_mean_initializer": {"class_name": "Zeros", "config": {}}, "moving_variance_initializer": {"class_name": "Ones", "config": {}}, "beta_regularizer": null, "gamma_regularizer": null, "beta_constraint": null, "gamma_constraint": null}, "inbound_nodes": [[["res4a_branch1", 0, 0, {}]]]}, {"name": "add_40", "class_name": "Add", "config": {"name": "add_40", "trainable": false}, "inbound_nodes": [[["bn4a_branch2c", 0, 0, {}], ["bn4a_branch1", 0, 0, {}]]]}, {"name": "activation_123", "class_name": "Activation", "config": {"name": "activation_123", "trainable": false, "activation": "relu"}, "inbound_nodes": [[["add_40", 0, 0, {}]]]}, {"name": "res4b_branch2a", "class_name": "Conv2D", "config": {"name": "res4b_branch2a", "trainable": false, "filters": 256, "kernel_size": [1, 1], "strides": [1, 1], "padding": "valid", "data_format": "channels_last", "dilation_rate": [1, 1], "activation": "linear", "use_bias": true, "kernel_initializer": {"class_name": "VarianceScaling", "config": {"scale": 2.0, "mode": "fan_in", "distribution": "normal", "seed": null}}, "bias_initializer": {"class_name": "Zeros", "config": {}}, "kernel_regularizer": null, "bias_regularizer": null, "activity_regularizer": null, "kernel_constraint": null, "bias_constraint": null}, "inbound_nodes": [[["activation_123", 0, 0, {}]]]}, {"name": "bn4b_branch2a", "class_name": "BatchNormalization", "config": {"name": "bn4b_branch2a", "trainable": false, "axis": 3, "momentum": 0.99, "epsilon": 0.001, "center": true, "scale": true, "beta_initializer": {"class_name": "Zeros", "config": {}}, "gamma_initializer": {"class_name": "Ones", "config": {}}, "moving_mean_initializer": {"class_name": "Zeros", "config": {}}, "moving_variance_initializer": {"class_name": "Ones", "config": {}}, "beta_regularizer": null, "gamma_regularizer": null, "beta_constraint": null, "gamma_constraint": null}, "inbound_nodes": [[["res4b_branch2a", 0, 0, {}]]]}, {"name": "activation_124", "class_name": "Activation", "config": {"name": "activation_124", "trainable": false, "activation": "relu"}, "inbound_nodes": [[["bn4b_branch2a", 0, 0, {}]]]}, {"name": "res4b_branch2b", "class_name": "Conv2D", "config": {"name": "res4b_branch2b", "trainable": false, "filters": 256, "kernel_size": [3, 3], "strides": [1, 1], "padding": "same", "data_format": "channels_last", "dilation_rate": [1, 1], "activation": "linear", "use_bias": true, "kernel_initializer": {"class_name": "VarianceScaling", "config": {"scale": 2.0, "mode": "fan_in", "distribution": "normal", "seed": null}}, "bias_initializer": {"class_name": "Zeros", "config": {}}, "kernel_regularizer": null, "bias_regularizer": null, "activity_regularizer": null, "kernel_constraint": null, "bias_constraint": null}, "inbound_nodes": [[["activation_124", 0, 0, {}]]]}, {"name": "bn4b_branch2b", "class_name": "BatchNormalization", "config": {"name": "bn4b_branch2b", "trainable": false, "axis": 3, "momentum": 0.99, "epsilon": 0.001, "center": true, "scale": true, "beta_initializer": {"class_name": "Zeros", "config": {}}, "gamma_initializer": {"class_name": "Ones", "config": {}}, "moving_mean_initializer": {"class_name": "Zeros", "config": {}}, "moving_variance_initializer": {"class_name": "Ones", "config": {}}, "beta_regularizer": null, "gamma_regularizer": null, "beta_constraint": null, "gamma_constraint": null}, "inbound_nodes": [[["res4b_branch2b", 0, 0, {}]]]}, {"name": "activation_125", "class_name": "Activation", "config": {"name": "activation_125", "trainable": false, "activation": "relu"}, "inbound_nodes": [[["bn4b_branch2b", 0, 0, {}]]]}, {"name": "res4b_branch2c", "class_name": "Conv2D", "config": {"name": "res4b_branch2c", "trainable": false, "filters": 1024, "kernel_size": [1, 1], "strides": [1, 1], "padding": "valid", "data_format": "channels_last", "dilation_rate": [1, 1], "activation": "linear", "use_bias": true, "kernel_initializer": {"class_name": "VarianceScaling", "config": {"scale": 2.0, "mode": "fan_in", "distribution": "normal", "seed": null}}, "bias_initializer": {"class_name": "Zeros", "config": {}}, "kernel_regularizer": null, "bias_regularizer": null, "activity_regularizer": null, "kernel_constraint": null, "bias_constraint": null}, "inbound_nodes": [[["activation_125", 0, 0, {}]]]}, {"name": "bn4b_branch2c", "class_name": "BatchNormalization", "config": {"name": "bn4b_branch2c", "trainable": false, "axis": 3, "momentum": 0.99, "epsilon": 0.001, "center": true, "scale": true, "beta_initializer": {"class_name": "Zeros", "config": {}}, "gamma_initializer": {"class_name": "Ones", "config": {}}, "moving_mean_initializer": {"class_name": "Zeros", "config": {}}, "moving_variance_initializer": {"class_name": "Ones", "config": {}}, "beta_regularizer": null, "gamma_regularizer": null, "beta_constraint": null, "gamma_constraint": null}, "inbound_nodes": [[["res4b_branch2c", 0, 0, {}]]]}, {"name": "add_41", "class_name": "Add", "config": {"name": "add_41", "trainable": false}, "inbound_nodes": [[["bn4b_branch2c", 0, 0, {}], ["activation_123", 0, 0, {}]]]}, {"name": "activation_126", "class_name": "Activation", "config": {"name": "activation_126", "trainable": false, "activation": "relu"}, "inbound_nodes": [[["add_41", 0, 0, {}]]]}, {"name": "res4c_branch2a", "class_name": "Conv2D", "config": {"name": "res4c_branch2a", "trainable": false, "filters": 256, "kernel_size": [1, 1], "strides": [1, 1], "padding": "valid", "data_format": "channels_last", "dilation_rate": [1, 1], "activation": "linear", "use_bias": true, "kernel_initializer": {"class_name": "VarianceScaling", "config": {"scale": 2.0, "mode": "fan_in", "distribution": "normal", "seed": null}}, "bias_initializer": {"class_name": "Zeros", "config": {}}, "kernel_regularizer": null, "bias_regularizer": null, "activity_regularizer": null, "kernel_constraint": null, "bias_constraint": null}, "inbound_nodes": [[["activation_126", 0, 0, {}]]]}, {"name": "bn4c_branch2a", "class_name": "BatchNormalization", "config": {"name": "bn4c_branch2a", "trainable": false, "axis": 3, "momentum": 0.99, "epsilon": 0.001, "center": true, "scale": true, "beta_initializer": {"class_name": "Zeros", "config": {}}, "gamma_initializer": {"class_name": "Ones", "config": {}}, "moving_mean_initializer": {"class_name": "Zeros", "config": {}}, "moving_variance_initializer": {"class_name": "Ones", "config": {}}, "beta_regularizer": null, "gamma_regularizer": null, "beta_constraint": null, "gamma_constraint": null}, "inbound_nodes": [[["res4c_branch2a", 0, 0, {}]]]}, {"name": "activation_127", "class_name": "Activation", "config": {"name": "activation_127", "trainable": false, "activation": "relu"}, "inbound_nodes": [[["bn4c_branch2a", 0, 0, {}]]]}, {"name": "res4c_branch2b", "class_name": "Conv2D", "config": {"name": "res4c_branch2b", "trainable": false, "filters": 256, "kernel_size": [3, 3], "strides": [1, 1], "padding": "same", "data_format": "channels_last", "dilation_rate": [1, 1], "activation": "linear", "use_bias": true, "kernel_initializer": {"class_name": "VarianceScaling", "config": {"scale": 2.0, "mode": "fan_in", "distribution": "normal", "seed": null}}, "bias_initializer": {"class_name": "Zeros", "config": {}}, "kernel_regularizer": null, "bias_regularizer": null, "activity_regularizer": null, "kernel_constraint": null, "bias_constraint": null}, "inbound_nodes": [[["activation_127", 0, 0, {}]]]}, {"name": "bn4c_branch2b", "class_name": "BatchNormalization", "config": {"name": "bn4c_branch2b", "trainable": false, "axis": 3, "momentum": 0.99, "epsilon": 0.001, "center": true, "scale": true, "beta_initializer": {"class_name": "Zeros", "config": {}}, "gamma_initializer": {"class_name": "Ones", "config": {}}, "moving_mean_initializer": {"class_name": "Zeros", "config": {}}, "moving_variance_initializer": {"class_name": "Ones", "config": {}}, "beta_regularizer": null, "gamma_regularizer": null, "beta_constraint": null, "gamma_constraint": null}, "inbound_nodes": [[["res4c_branch2b", 0, 0, {}]]]}, {"name": "activation_128", "class_name": "Activation", "config": {"name": "activation_128", "trainable": false, "activation": "relu"}, "inbound_nodes": [[["bn4c_branch2b", 0, 0, {}]]]}, {"name": "res4c_branch2c", "class_name": "Conv2D", "config": {"name": "res4c_branch2c", "trainable": false, "filters": 1024, "kernel_size": [1, 1], "strides": [1, 1], "padding": "valid", "data_format": "channels_last", "dilation_rate": [1, 1], "activation": "linear", "use_bias": true, "kernel_initializer": {"class_name": "VarianceScaling", "config": {"scale": 2.0, "mode": "fan_in", "distribution": "normal", "seed": null}}, "bias_initializer": {"class_name": "Zeros", "config": {}}, "kernel_regularizer": null, "bias_regularizer": null, "activity_regularizer": null, "kernel_constraint": null, "bias_constraint": null}, "inbound_nodes": [[["activation_128", 0, 0, {}]]]}, {"name": "bn4c_branch2c", "class_name": "BatchNormalization", "config": {"name": "bn4c_branch2c", "trainable": false, "axis": 3, "momentum": 0.99, "epsilon": 0.001, "center": true, "scale": true, "beta_initializer": {"class_name": "Zeros", "config": {}}, "gamma_initializer": {"class_name": "Ones", "config": {}}, "moving_mean_initializer": {"class_name": "Zeros", "config": {}}, "moving_variance_initializer": {"class_name": "Ones", "config": {}}, "beta_regularizer": null, "gamma_regularizer": null, "beta_constraint": null, "gamma_constraint": null}, "inbound_nodes": [[["res4c_branch2c", 0, 0, {}]]]}, {"name": "add_42", "class_name": "Add", "config": {"name": "add_42", "trainable": false}, "inbound_nodes": [[["bn4c_branch2c", 0, 0, {}], ["activation_126", 0, 0, {}]]]}, {"name": "activation_129", "class_name": "Activation", "config": {"name": "activation_129", "trainable": false, "activation": "relu"}, "inbound_nodes": [[["add_42", 0, 0, {}]]]}, {"name": "res4d_branch2a", "class_name": "Conv2D", "config": {"name": "res4d_branch2a", "trainable": false, "filters": 256, "kernel_size": [1, 1], "strides": [1, 1], "padding": "valid", "data_format": "channels_last", "dilation_rate": [1, 1], "activation": "linear", "use_bias": true, "kernel_initializer": {"class_name": "VarianceScaling", "config": {"scale": 2.0, "mode": "fan_in", "distribution": "normal", "seed": null}}, "bias_initializer": {"class_name": "Zeros", "config": {}}, "kernel_regularizer": null, "bias_regularizer": null, "activity_regularizer": null, "kernel_constraint": null, "bias_constraint": null}, "inbound_nodes": [[["activation_129", 0, 0, {}]]]}, {"name": "bn4d_branch2a", "class_name": "BatchNormalization", "config": {"name": "bn4d_branch2a", "trainable": false, "axis": 3, "momentum": 0.99, "epsilon": 0.001, "center": true, "scale": true, "beta_initializer": {"class_name": "Zeros", "config": {}}, "gamma_initializer": {"class_name": "Ones", "config": {}}, "moving_mean_initializer": {"class_name": "Zeros", "config": {}}, "moving_variance_initializer": {"class_name": "Ones", "config": {}}, "beta_regularizer": null, "gamma_regularizer": null, "beta_constraint": null, "gamma_constraint": null}, "inbound_nodes": [[["res4d_branch2a", 0, 0, {}]]]}, {"name": "activation_130", "class_name": "Activation", "config": {"name": "activation_130", "trainable": false, "activation": "relu"}, "inbound_nodes": [[["bn4d_branch2a", 0, 0, {}]]]}, {"name": "res4d_branch2b", "class_name": "Conv2D", "config": {"name": "res4d_branch2b", "trainable": false, "filters": 256, "kernel_size": [3, 3], "strides": [1, 1], "padding": "same", "data_format": "channels_last", "dilation_rate": [1, 1], "activation": "linear", "use_bias": true, "kernel_initializer": {"class_name": "VarianceScaling", "config": {"scale": 2.0, "mode": "fan_in", "distribution": "normal", "seed": null}}, "bias_initializer": {"class_name": "Zeros", "config": {}}, "kernel_regularizer": null, "bias_regularizer": null, "activity_regularizer": null, "kernel_constraint": null, "bias_constraint": null}, "inbound_nodes": [[["activation_130", 0, 0, {}]]]}, {"name": "bn4d_branch2b", "class_name": "BatchNormalization", "config": {"name": "bn4d_branch2b", "trainable": false, "axis": 3, "momentum": 0.99, "epsilon": 0.001, "center": true, "scale": true, "beta_initializer": {"class_name": "Zeros", "config": {}}, "gamma_initializer": {"class_name": "Ones", "config": {}}, "moving_mean_initializer": {"class_name": "Zeros", "config": {}}, "moving_variance_initializer": {"class_name": "Ones", "config": {}}, "beta_regularizer": null, "gamma_regularizer": null, "beta_constraint": null, "gamma_constraint": null}, "inbound_nodes": [[["res4d_branch2b", 0, 0, {}]]]}, {"name": "activation_131", "class_name": "Activation", "config": {"name": "activation_131", "trainable": false, "activation": "relu"}, "inbound_nodes": [[["bn4d_branch2b", 0, 0, {}]]]}, {"name": "res4d_branch2c", "class_name": "Conv2D", "config": {"name": "res4d_branch2c", "trainable": false, "filters": 1024, "kernel_size": [1, 1], "strides": [1, 1], "padding": "valid", "data_format": "channels_last", "dilation_rate": [1, 1], "activation": "linear", "use_bias": true, "kernel_initializer": {"class_name": "VarianceScaling", "config": {"scale": 2.0, "mode": "fan_in", "distribution": "normal", "seed": null}}, "bias_initializer": {"class_name": "Zeros", "config": {}}, "kernel_regularizer": null, "bias_regularizer": null, "activity_regularizer": null, "kernel_constraint": null, "bias_constraint": null}, "inbound_nodes": [[["activation_131", 0, 0, {}]]]}, {"name": "bn4d_branch2c", "class_name": "BatchNormalization", "config": {"name": "bn4d_branch2c", "trainable": false, "axis": 3, "momentum": 0.99, "epsilon": 0.001, "center": true, "scale": true, "beta_initializer": {"class_name": "Zeros", "config": {}}, "gamma_initializer": {"class_name": "Ones", "config": {}}, "moving_mean_initializer": {"class_name": "Zeros", "config": {}}, "moving_variance_initializer": {"class_name": "Ones", "config": {}}, "beta_regularizer": null, "gamma_regularizer": null, "beta_constraint": null, "gamma_constraint": null}, "inbound_nodes": [[["res4d_branch2c", 0, 0, {}]]]}, {"name": "add_43", "class_name": "Add", "config": {"name": "add_43", "trainable": false}, "inbound_nodes": [[["bn4d_branch2c", 0, 0, {}], ["activation_129", 0, 0, {}]]]}, {"name": "activation_132", "class_name": "Activation", "config": {"name": "activation_132", "trainable": false, "activation": "relu"}, "inbound_nodes": [[["add_43", 0, 0, {}]]]}, {"name": "res4e_branch2a", "class_name": "Conv2D", "config": {"name": "res4e_branch2a", "trainable": false, "filters": 256, "kernel_size": [1, 1], "strides": [1, 1], "padding": "valid", "data_format": "channels_last", "dilation_rate": [1, 1], "activation": "linear", "use_bias": true, "kernel_initializer": {"class_name": "VarianceScaling", "config": {"scale": 2.0, "mode": "fan_in", "distribution": "normal", "seed": null}}, "bias_initializer": {"class_name": "Zeros", "config": {}}, "kernel_regularizer": null, "bias_regularizer": null, "activity_regularizer": null, "kernel_constraint": null, "bias_constraint": null}, "inbound_nodes": [[["activation_132", 0, 0, {}]]]}, {"name": "bn4e_branch2a", "class_name": "BatchNormalization", "config": {"name": "bn4e_branch2a", "trainable": false, "axis": 3, "momentum": 0.99, "epsilon": 0.001, "center": true, "scale": true, "beta_initializer": {"class_name": "Zeros", "config": {}}, "gamma_initializer": {"class_name": "Ones", "config": {}}, "moving_mean_initializer": {"class_name": "Zeros", "config": {}}, "moving_variance_initializer": {"class_name": "Ones", "config": {}}, "beta_regularizer": null, "gamma_regularizer": null, "beta_constraint": null, "gamma_constraint": null}, "inbound_nodes": [[["res4e_branch2a", 0, 0, {}]]]}, {"name": "activation_133", "class_name": "Activation", "config": {"name": "activation_133", "trainable": false, "activation": "relu"}, "inbound_nodes": [[["bn4e_branch2a", 0, 0, {}]]]}, {"name": "res4e_branch2b", "class_name": "Conv2D", "config": {"name": "res4e_branch2b", "trainable": false, "filters": 256, "kernel_size": [3, 3], "strides": [1, 1], "padding": "same", "data_format": "channels_last", "dilation_rate": [1, 1], "activation": "linear", "use_bias": true, "kernel_initializer": {"class_name": "VarianceScaling", "config": {"scale": 2.0, "mode": "fan_in", "distribution": "normal", "seed": null}}, "bias_initializer": {"class_name": "Zeros", "config": {}}, "kernel_regularizer": null, "bias_regularizer": null, "activity_regularizer": null, "kernel_constraint": null, "bias_constraint": null}, "inbound_nodes": [[["activation_133", 0, 0, {}]]]}, {"name": "bn4e_branch2b", "class_name": "BatchNormalization", "config": {"name": "bn4e_branch2b", "trainable": false, "axis": 3, "momentum": 0.99, "epsilon": 0.001, "center": true, "scale": true, "beta_initializer": {"class_name": "Zeros", "config": {}}, "gamma_initializer": {"class_name": "Ones", "config": {}}, "moving_mean_initializer": {"class_name": "Zeros", "config": {}}, "moving_variance_initializer": {"class_name": "Ones", "config": {}}, "beta_regularizer": null, "gamma_regularizer": null, "beta_constraint": null, "gamma_constraint": null}, "inbound_nodes": [[["res4e_branch2b", 0, 0, {}]]]}, {"name": "activation_134", "class_name": "Activation", "config": {"name": "activation_134", "trainable": false, "activation": "relu"}, "inbound_nodes": [[["bn4e_branch2b", 0, 0, {}]]]}, {"name": "res4e_branch2c", "class_name": "Conv2D", "config": {"name": "res4e_branch2c", "trainable": false, "filters": 1024, "kernel_size": [1, 1], "strides": [1, 1], "padding": "valid", "data_format": "channels_last", "dilation_rate": [1, 1], "activation": "linear", "use_bias": true, "kernel_initializer": {"class_name": "VarianceScaling", "config": {"scale": 2.0, "mode": "fan_in", "distribution": "normal", "seed": null}}, "bias_initializer": {"class_name": "Zeros", "config": {}}, "kernel_regularizer": null, "bias_regularizer": null, "activity_regularizer": null, "kernel_constraint": null, "bias_constraint": null}, "inbound_nodes": [[["activation_134", 0, 0, {}]]]}, {"name": "bn4e_branch2c", "class_name": "BatchNormalization", "config": {"name": "bn4e_branch2c", "trainable": false, "axis": 3, "momentum": 0.99, "epsilon": 0.001, "center": true, "scale": true, "beta_initializer": {"class_name": "Zeros", "config": {}}, "gamma_initializer": {"class_name": "Ones", "config": {}}, "moving_mean_initializer": {"class_name": "Zeros", "config": {}}, "moving_variance_initializer": {"class_name": "Ones", "config": {}}, "beta_regularizer": null, "gamma_regularizer": null, "beta_constraint": null, "gamma_constraint": null}, "inbound_nodes": [[["res4e_branch2c", 0, 0, {}]]]}, {"name": "add_44", "class_name": "Add", "config": {"name": "add_44", "trainable": false}, "inbound_nodes": [[["bn4e_branch2c", 0, 0, {}], ["activation_132", 0, 0, {}]]]}, {"name": "activation_135", "class_name": "Activation", "config": {"name": "activation_135", "trainable": false, "activation": "relu"}, "inbound_nodes": [[["add_44", 0, 0, {}]]]}, {"name": "res4f_branch2a", "class_name": "Conv2D", "config": {"name": "res4f_branch2a", "trainable": false, "filters": 256, "kernel_size": [1, 1], "strides": [1, 1], "padding": "valid", "data_format": "channels_last", "dilation_rate": [1, 1], "activation": "linear", "use_bias": true, "kernel_initializer": {"class_name": "VarianceScaling", "config": {"scale": 2.0, "mode": "fan_in", "distribution": "normal", "seed": null}}, "bias_initializer": {"class_name": "Zeros", "config": {}}, "kernel_regularizer": null, "bias_regularizer": null, "activity_regularizer": null, "kernel_constraint": null, "bias_constraint": null}, "inbound_nodes": [[["activation_135", 0, 0, {}]]]}, {"name": "bn4f_branch2a", "class_name": "BatchNormalization", "config": {"name": "bn4f_branch2a", "trainable": false, "axis": 3, "momentum": 0.99, "epsilon": 0.001, "center": true, "scale": true, "beta_initializer": {"class_name": "Zeros", "config": {}}, "gamma_initializer": {"class_name": "Ones", "config": {}}, "moving_mean_initializer": {"class_name": "Zeros", "config": {}}, "moving_variance_initializer": {"class_name": "Ones", "config": {}}, "beta_regularizer": null, "gamma_regularizer": null, "beta_constraint": null, "gamma_constraint": null}, "inbound_nodes": [[["res4f_branch2a", 0, 0, {}]]]}, {"name": "activation_136", "class_name": "Activation", "config": {"name": "activation_136", "trainable": false, "activation": "relu"}, "inbound_nodes": [[["bn4f_branch2a", 0, 0, {}]]]}, {"name": "res4f_branch2b", "class_name": "Conv2D", "config": {"name": "res4f_branch2b", "trainable": false, "filters": 256, "kernel_size": [3, 3], "strides": [1, 1], "padding": "same", "data_format": "channels_last", "dilation_rate": [1, 1], "activation": "linear", "use_bias": true, "kernel_initializer": {"class_name": "VarianceScaling", "config": {"scale": 2.0, "mode": "fan_in", "distribution": "normal", "seed": null}}, "bias_initializer": {"class_name": "Zeros", "config": {}}, "kernel_regularizer": null, "bias_regularizer": null, "activity_regularizer": null, "kernel_constraint": null, "bias_constraint": null}, "inbound_nodes": [[["activation_136", 0, 0, {}]]]}, {"name": "bn4f_branch2b", "class_name": "BatchNormalization", "config": {"name": "bn4f_branch2b", "trainable": false, "axis": 3, "momentum": 0.99, "epsilon": 0.001, "center": true, "scale": true, "beta_initializer": {"class_name": "Zeros", "config": {}}, "gamma_initializer": {"class_name": "Ones", "config": {}}, "moving_mean_initializer": {"class_name": "Zeros", "config": {}}, "moving_variance_initializer": {"class_name": "Ones", "config": {}}, "beta_regularizer": null, "gamma_regularizer": null, "beta_constraint": null, "gamma_constraint": null}, "inbound_nodes": [[["res4f_branch2b", 0, 0, {}]]]}, {"name": "activation_137", "class_name": "Activation", "config": {"name": "activation_137", "trainable": false, "activation": "relu"}, "inbound_nodes": [[["bn4f_branch2b", 0, 0, {}]]]}, {"name": "res4f_branch2c", "class_name": "Conv2D", "config": {"name": "res4f_branch2c", "trainable": false, "filters": 1024, "kernel_size": [1, 1], "strides": [1, 1], "padding": "valid", "data_format": "channels_last", "dilation_rate": [1, 1], "activation": "linear", "use_bias": true, "kernel_initializer": {"class_name": "VarianceScaling", "config": {"scale": 2.0, "mode": "fan_in", "distribution": "normal", "seed": null}}, "bias_initializer": {"class_name": "Zeros", "config": {}}, "kernel_regularizer": null, "bias_regularizer": null, "activity_regularizer": null, "kernel_constraint": null, "bias_constraint": null}, "inbound_nodes": [[["activation_137", 0, 0, {}]]]}, {"name": "bn4f_branch2c", "class_name": "BatchNormalization", "config": {"name": "bn4f_branch2c", "trainable": false, "axis": 3, "momentum": 0.99, "epsilon": 0.001, "center": true, "scale": true, "beta_initializer": {"class_name": "Zeros", "config": {}}, "gamma_initializer": {"class_name": "Ones", "config": {}}, "moving_mean_initializer": {"class_name": "Zeros", "config": {}}, "moving_variance_initializer": {"class_name": "Ones", "config": {}}, "beta_regularizer": null, "gamma_regularizer": null, "beta_constraint": null, "gamma_constraint": null}, "inbound_nodes": [[["res4f_branch2c", 0, 0, {}]]]}, {"name": "add_45", "class_name": "Add", "config": {"name": "add_45", "trainable": false}, "inbound_nodes": [[["bn4f_branch2c", 0, 0, {}], ["activation_135", 0, 0, {}]]]}, {"name": "activation_138", "class_name": "Activation", "config": {"name": "activation_138", "trainable": false, "activation": "relu"}, "inbound_nodes": [[["add_45", 0, 0, {}]]]}, {"name": "res5a_branch2a", "class_name": "Conv2D", "config": {"name": "res5a_branch2a", "trainable": false, "filters": 512, "kernel_size": [1, 1], "strides": [2, 2], "padding": "valid", "data_format": "channels_last", "dilation_rate": [1, 1], "activation": "linear", "use_bias": true, "kernel_initializer": {"class_name": "VarianceScaling", "config": {"scale": 2.0, "mode": "fan_in", "distribution": "normal", "seed": null}}, "bias_initializer": {"class_name": "Zeros", "config": {}}, "kernel_regularizer": null, "bias_regularizer": null, "activity_regularizer": null, "kernel_constraint": null, "bias_constraint": null}, "inbound_nodes": [[["activation_138", 0, 0, {}]]]}, {"name": "bn5a_branch2a", "class_name": "BatchNormalization", "config": {"name": "bn5a_branch2a", "trainable": false, "axis": 3, "momentum": 0.99, "epsilon": 0.001, "center": true, "scale": true, "beta_initializer": {"class_name": "Zeros", "config": {}}, "gamma_initializer": {"class_name": "Ones", "config": {}}, "moving_mean_initializer": {"class_name": "Zeros", "config": {}}, "moving_variance_initializer": {"class_name": "Ones", "config": {}}, "beta_regularizer": null, "gamma_regularizer": null, "beta_constraint": null, "gamma_constraint": null}, "inbound_nodes": [[["res5a_branch2a", 0, 0, {}]]]}, {"name": "activation_139", "class_name": "Activation", "config": {"name": "activation_139", "trainable": false, "activation": "relu"}, "inbound_nodes": [[["bn5a_branch2a", 0, 0, {}]]]}, {"name": "res5a_branch2b", "class_name": "Conv2D", "config": {"name": "res5a_branch2b", "trainable": false, "filters": 512, "kernel_size": [3, 3], "strides": [1, 1], "padding": "same", "data_format": "channels_last", "dilation_rate": [1, 1], "activation": "linear", "use_bias": true, "kernel_initializer": {"class_name": "VarianceScaling", "config": {"scale": 2.0, "mode": "fan_in", "distribution": "normal", "seed": null}}, "bias_initializer": {"class_name": "Zeros", "config": {}}, "kernel_regularizer": null, "bias_regularizer": null, "activity_regularizer": null, "kernel_constraint": null, "bias_constraint": null}, "inbound_nodes": [[["activation_139", 0, 0, {}]]]}, {"name": "bn5a_branch2b", "class_name": "BatchNormalization", "config": {"name": "bn5a_branch2b", "trainable": false, "axis": 3, "momentum": 0.99, "epsilon": 0.001, "center": true, "scale": true, "beta_initializer": {"class_name": "Zeros", "config": {}}, "gamma_initializer": {"class_name": "Ones", "config": {}}, "moving_mean_initializer": {"class_name": "Zeros", "config": {}}, "moving_variance_initializer": {"class_name": "Ones", "config": {}}, "beta_regularizer": null, "gamma_regularizer": null, "beta_constraint": null, "gamma_constraint": null}, "inbound_nodes": [[["res5a_branch2b", 0, 0, {}]]]}, {"name": "activation_140", "class_name": "Activation", "config": {"name": "activation_140", "trainable": false, "activation": "relu"}, "inbound_nodes": [[["bn5a_branch2b", 0, 0, {}]]]}, {"name": "res5a_branch2c", "class_name": "Conv2D", "config": {"name": "res5a_branch2c", "trainable": false, "filters": 2048, "kernel_size": [1, 1], "strides": [1, 1], "padding": "valid", "data_format": "channels_last", "dilation_rate": [1, 1], "activation": "linear", "use_bias": true, "kernel_initializer": {"class_name": "VarianceScaling", "config": {"scale": 2.0, "mode": "fan_in", "distribution": "normal", "seed": null}}, "bias_initializer": {"class_name": "Zeros", "config": {}}, "kernel_regularizer": null, "bias_regularizer": null, "activity_regularizer": null, "kernel_constraint": null, "bias_constraint": null}, "inbound_nodes": [[["activation_140", 0, 0, {}]]]}, {"name": "res5a_branch1", "class_name": "Conv2D", "config": {"name": "res5a_branch1", "trainable": false, "filters": 2048, "kernel_size": [1, 1], "strides": [2, 2], "padding": "valid", "data_format": "channels_last", "dilation_rate": [1, 1], "activation": "linear", "use_bias": true, "kernel_initializer": {"class_name": "VarianceScaling", "config": {"scale": 2.0, "mode": "fan_in", "distribution": "normal", "seed": null}}, "bias_initializer": {"class_name": "Zeros", "config": {}}, "kernel_regularizer": null, "bias_regularizer": null, "activity_regularizer": null, "kernel_constraint": null, "bias_constraint": null}, "inbound_nodes": [[["activation_138", 0, 0, {}]]]}, {"name": "bn5a_branch2c", "class_name": "BatchNormalization", "config": {"name": "bn5a_branch2c", "trainable": false, "axis": 3, "momentum": 0.99, "epsilon": 0.001, "center": true, "scale": true, "beta_initializer": {"class_name": "Zeros", "config": {}}, "gamma_initializer": {"class_name": "Ones", "config": {}}, "moving_mean_initializer": {"class_name": "Zeros", "config": {}}, "moving_variance_initializer": {"class_name": "Ones", "config": {}}, "beta_regularizer": null, "gamma_regularizer": null, "beta_constraint": null, "gamma_constraint": null}, "inbound_nodes": [[["res5a_branch2c", 0, 0, {}]]]}, {"name": "bn5a_branch1", "class_name": "BatchNormalization", "config": {"name": "bn5a_branch1", "trainable": false, "axis": 3, "momentum": 0.99, "epsilon": 0.001, "center": true, "scale": true, "beta_initializer": {"class_name": "Zeros", "config": {}}, "gamma_initializer": {"class_name": "Ones", "config": {}}, "moving_mean_initializer": {"class_name": "Zeros", "config": {}}, "moving_variance_initializer": {"class_name": "Ones", "config": {}}, "beta_regularizer": null, "gamma_regularizer": null, "beta_constraint": null, "gamma_constraint": null}, "inbound_nodes": [[["res5a_branch1", 0, 0, {}]]]}, {"name": "add_46", "class_name": "Add", "config": {"name": "add_46", "trainable": false}, "inbound_nodes": [[["bn5a_branch2c", 0, 0, {}], ["bn5a_branch1", 0, 0, {}]]]}, {"name": "activation_141", "class_name": "Activation", "config": {"name": "activation_141", "trainable": false, "activation": "relu"}, "inbound_nodes": [[["add_46", 0, 0, {}]]]}, {"name": "res5b_branch2a", "class_name": "Conv2D", "config": {"name": "res5b_branch2a", "trainable": false, "filters": 512, "kernel_size": [1, 1], "strides": [1, 1], "padding": "valid", "data_format": "channels_last", "dilation_rate": [1, 1], "activation": "linear", "use_bias": true, "kernel_initializer": {"class_name": "VarianceScaling", "config": {"scale": 2.0, "mode": "fan_in", "distribution": "normal", "seed": null}}, "bias_initializer": {"class_name": "Zeros", "config": {}}, "kernel_regularizer": null, "bias_regularizer": null, "activity_regularizer": null, "kernel_constraint": null, "bias_constraint": null}, "inbound_nodes": [[["activation_141", 0, 0, {}]]]}, {"name": "bn5b_branch2a", "class_name": "BatchNormalization", "config": {"name": "bn5b_branch2a", "trainable": false, "axis": 3, "momentum": 0.99, "epsilon": 0.001, "center": true, "scale": true, "beta_initializer": {"class_name": "Zeros", "config": {}}, "gamma_initializer": {"class_name": "Ones", "config": {}}, "moving_mean_initializer": {"class_name": "Zeros", "config": {}}, "moving_variance_initializer": {"class_name": "Ones", "config": {}}, "beta_regularizer": null, "gamma_regularizer": null, "beta_constraint": null, "gamma_constraint": null}, "inbound_nodes": [[["res5b_branch2a", 0, 0, {}]]]}, {"name": "activation_142", "class_name": "Activation", "config": {"name": "activation_142", "trainable": false, "activation": "relu"}, "inbound_nodes": [[["bn5b_branch2a", 0, 0, {}]]]}, {"name": "res5b_branch2b", "class_name": "Conv2D", "config": {"name": "res5b_branch2b", "trainable": false, "filters": 512, "kernel_size": [3, 3], "strides": [1, 1], "padding": "same", "data_format": "channels_last", "dilation_rate": [1, 1], "activation": "linear", "use_bias": true, "kernel_initializer": {"class_name": "VarianceScaling", "config": {"scale": 2.0, "mode": "fan_in", "distribution": "normal", "seed": null}}, "bias_initializer": {"class_name": "Zeros", "config": {}}, "kernel_regularizer": null, "bias_regularizer": null, "activity_regularizer": null, "kernel_constraint": null, "bias_constraint": null}, "inbound_nodes": [[["activation_142", 0, 0, {}]]]}, {"name": "bn5b_branch2b", "class_name": "BatchNormalization", "config": {"name": "bn5b_branch2b", "trainable": false, "axis": 3, "momentum": 0.99, "epsilon": 0.001, "center": true, "scale": true, "beta_initializer": {"class_name": "Zeros", "config": {}}, "gamma_initializer": {"class_name": "Ones", "config": {}}, "moving_mean_initializer": {"class_name": "Zeros", "config": {}}, "moving_variance_initializer": {"class_name": "Ones", "config": {}}, "beta_regularizer": null, "gamma_regularizer": null, "beta_constraint": null, "gamma_constraint": null}, "inbound_nodes": [[["res5b_branch2b", 0, 0, {}]]]}, {"name": "activation_143", "class_name": "Activation", "config": {"name": "activation_143", "trainable": false, "activation": "relu"}, "inbound_nodes": [[["bn5b_branch2b", 0, 0, {}]]]}, {"name": "res5b_branch2c", "class_name": "Conv2D", "config": {"name": "res5b_branch2c", "trainable": false, "filters": 2048, "kernel_size": [1, 1], "strides": [1, 1], "padding": "valid", "data_format": "channels_last", "dilation_rate": [1, 1], "activation": "linear", "use_bias": true, "kernel_initializer": {"class_name": "VarianceScaling", "config": {"scale": 2.0, "mode": "fan_in", "distribution": "normal", "seed": null}}, "bias_initializer": {"class_name": "Zeros", "config": {}}, "kernel_regularizer": null, "bias_regularizer": null, "activity_regularizer": null, "kernel_constraint": null, "bias_constraint": null}, "inbound_nodes": [[["activation_143", 0, 0, {}]]]}, {"name": "bn5b_branch2c", "class_name": "BatchNormalization", "config": {"name": "bn5b_branch2c", "trainable": false, "axis": 3, "momentum": 0.99, "epsilon": 0.001, "center": true, "scale": true, "beta_initializer": {"class_name": "Zeros", "config": {}}, "gamma_initializer": {"class_name": "Ones", "config": {}}, "moving_mean_initializer": {"class_name": "Zeros", "config": {}}, "moving_variance_initializer": {"class_name": "Ones", "config": {}}, "beta_regularizer": null, "gamma_regularizer": null, "beta_constraint": null, "gamma_constraint": null}, "inbound_nodes": [[["res5b_branch2c", 0, 0, {}]]]}, {"name": "add_47", "class_name": "Add", "config": {"name": "add_47", "trainable": false}, "inbound_nodes": [[["bn5b_branch2c", 0, 0, {}], ["activation_141", 0, 0, {}]]]}, {"name": "activation_144", "class_name": "Activation", "config": {"name": "activation_144", "trainable": false, "activation": "relu"}, "inbound_nodes": [[["add_47", 0, 0, {}]]]}, {"name": "res5c_branch2a", "class_name": "Conv2D", "config": {"name": "res5c_branch2a", "trainable": false, "filters": 512, "kernel_size": [1, 1], "strides": [1, 1], "padding": "valid", "data_format": "channels_last", "dilation_rate": [1, 1], "activation": "linear", "use_bias": true, "kernel_initializer": {"class_name": "VarianceScaling", "config": {"scale": 2.0, "mode": "fan_in", "distribution": "normal", "seed": null}}, "bias_initializer": {"class_name": "Zeros", "config": {}}, "kernel_regularizer": null, "bias_regularizer": null, "activity_regularizer": null, "kernel_constraint": null, "bias_constraint": null}, "inbound_nodes": [[["activation_144", 0, 0, {}]]]}, {"name": "bn5c_branch2a", "class_name": "BatchNormalization", "config": {"name": "bn5c_branch2a", "trainable": false, "axis": 3, "momentum": 0.99, "epsilon": 0.001, "center": true, "scale": true, "beta_initializer": {"class_name": "Zeros", "config": {}}, "gamma_initializer": {"class_name": "Ones", "config": {}}, "moving_mean_initializer": {"class_name": "Zeros", "config": {}}, "moving_variance_initializer": {"class_name": "Ones", "config": {}}, "beta_regularizer": null, "gamma_regularizer": null, "beta_constraint": null, "gamma_constraint": null}, "inbound_nodes": [[["res5c_branch2a", 0, 0, {}]]]}, {"name": "activation_145", "class_name": "Activation", "config": {"name": "activation_145", "trainable": false, "activation": "relu"}, "inbound_nodes": [[["bn5c_branch2a", 0, 0, {}]]]}, {"name": "res5c_branch2b", "class_name": "Conv2D", "config": {"name": "res5c_branch2b", "trainable": false, "filters": 512, "kernel_size": [3, 3], "strides": [1, 1], "padding": "same", "data_format": "channels_last", "dilation_rate": [1, 1], "activation": "linear", "use_bias": true, "kernel_initializer": {"class_name": "VarianceScaling", "config": {"scale": 2.0, "mode": "fan_in", "distribution": "normal", "seed": null}}, "bias_initializer": {"class_name": "Zeros", "config": {}}, "kernel_regularizer": null, "bias_regularizer": null, "activity_regularizer": null, "kernel_constraint": null, "bias_constraint": null}, "inbound_nodes": [[["activation_145", 0, 0, {}]]]}, {"name": "bn5c_branch2b", "class_name": "BatchNormalization", "config": {"name": "bn5c_branch2b", "trainable": false, "axis": 3, "momentum": 0.99, "epsilon": 0.001, "center": true, "scale": true, "beta_initializer": {"class_name": "Zeros", "config": {}}, "gamma_initializer": {"class_name": "Ones", "config": {}}, "moving_mean_initializer": {"class_name": "Zeros", "config": {}}, "moving_variance_initializer": {"class_name": "Ones", "config": {}}, "beta_regularizer": null, "gamma_regularizer": null, "beta_constraint": null, "gamma_constraint": null}, "inbound_nodes": [[["res5c_branch2b", 0, 0, {}]]]}, {"name": "activation_146", "class_name": "Activation", "config": {"name": "activation_146", "trainable": false, "activation": "relu"}, "inbound_nodes": [[["bn5c_branch2b", 0, 0, {}]]]}, {"name": "res5c_branch2c", "class_name": "Conv2D", "config": {"name": "res5c_branch2c", "trainable": false, "filters": 2048, "kernel_size": [1, 1], "strides": [1, 1], "padding": "valid", "data_format": "channels_last", "dilation_rate": [1, 1], "activation": "linear", "use_bias": true, "kernel_initializer": {"class_name": "VarianceScaling", "config": {"scale": 2.0, "mode": "fan_in", "distribution": "normal", "seed": null}}, "bias_initializer": {"class_name": "Zeros", "config": {}}, "kernel_regularizer": null, "bias_regularizer": null, "activity_regularizer": null, "kernel_constraint": null, "bias_constraint": null}, "inbound_nodes": [[["activation_146", 0, 0, {}]]]}, {"name": "bn5c_branch2c", "class_name": "BatchNormalization", "config": {"name": "bn5c_branch2c", "trainable": false, "axis": 3, "momentum": 0.99, "epsilon": 0.001, "center": true, "scale": true, "beta_initializer": {"class_name": "Zeros", "config": {}}, "gamma_initializer": {"class_name": "Ones", "config": {}}, "moving_mean_initializer": {"class_name": "Zeros", "config": {}}, "moving_variance_initializer": {"class_name": "Ones", "config": {}}, "beta_regularizer": null, "gamma_regularizer": null, "beta_constraint": null, "gamma_constraint": null}, "inbound_nodes": [[["res5c_branch2c", 0, 0, {}]]]}, {"name": "add_48", "class_name": "Add", "config": {"name": "add_48", "trainable": false}, "inbound_nodes": [[["bn5c_branch2c", 0, 0, {}], ["activation_144", 0, 0, {}]]]}, {"name": "activation_147", "class_name": "Activation", "config": {"name": "activation_147", "trainable": false, "activation": "relu"}, "inbound_nodes": [[["add_48", 0, 0, {}]]]}, {"name": "global_average_pooling2d_5", "class_name": "GlobalAveragePooling2D", "config": {"name": "global_average_pooling2d_5", "trainable": true, "data_format": "channels_last"}, "inbound_nodes": [[["activation_147", 0, 0, {}]]]}, {"name": "dense_9", "class_name": "Dense", "config": {"name": "dense_9", "trainable": true, "units": 128, "activation": "relu", "use_bias": true, "kernel_initializer": {"class_name": "VarianceScaling", "config": {"scale": 1.0, "mode": "fan_avg", "distribution": "uniform", "seed": null}}, "bias_initializer": {"class_name": "Zeros", "config": {}}, "kernel_regularizer": null, "bias_regularizer": null, "activity_regularizer": null, "kernel_constraint": null, "bias_constraint": null}, "inbound_nodes": [[["global_average_pooling2d_5", 0, 0, {}]]]}, {"name": "dense_10", "class_name": "Dense", "config": {"name": "dense_10", "trainable": true, "units": 4, "activation": "softmax", "use_bias": true, "kernel_initializer": {"class_name": "VarianceScaling", "config": {"scale": 1.0, "mode": "fan_avg", "distribution": "uniform", "seed": null}}, "bias_initializer": {"class_name": "Zeros", "config": {}}, "kernel_regularizer": null, "bias_regularizer": null, "activity_regularizer": null, "kernel_constraint": null, "bias_constraint": null}, "inbound_nodes": [[["dense_9", 0, 0, {}]]]}], "input_layers": [["input_3", 0, 0]], "output_layers": [["dense_10", 0, 0]]}, "keras_version": "2.2.4", "backend": "tensorflow"}